…
0 | model     | DistilBertForSequenceClassification | 69.3 M
1 | train_acc | MulticlassAccuracy                  | 0     
2 | val_acc   | MulticlassAccuracy                  | 0     
3 | test_acc  | MulticlassAccuracy                  | 0     
------------------------------------------------------------------
2.4 M     Trainable params
67.0 M    Non-trainable params
69.3 M    Total params
277.257   Total estimated model params size (MB)
Total number of trainable parameters: 2359296
DistilBertForSequenceClassification(
  (distilbert): DistilBertModel(
    (embeddings): Embeddings(
      (word_embeddings): Embedding(30522, 768, padding_idx=0)
      (position_embeddings): Embedding(512, 768)
      (LayerNorm): LayerNorm((768,), eps=1e-12, elementwise_affine=True)
      (dropout): Dropout(p=0.1, inplace=False)
    )
    (transformer): Transformer(
      (layer): ModuleList(
        (0-5): 6 x TransformerBlock(
          (attention): MultiHeadSelfAttention(
            (dropout): Dropout(p=0.1, inplace=False)
            (q_lin): LinearWithLoRA(
              (linear): Linear(in_features=768, out_features=768, bias=True)
              (lora): LoRALayer()
            )
            (k_lin): Linear(in_features=768, out_features=768, bias=True)
            (v_lin): LinearWithLoRA(
              (linear): Linear(in_features=768, out_features=768, bias=True)
              (lora): LoRALayer()
            )
            (out_lin): LinearWithLoRA(
              (linear): Linear(in_features=768, out_features=768, bias=True)
              (lora): LoRALayer()
            )
          )
          (sa_layer_norm): LayerNorm((768,), eps=1e-12, elementwise_affine=True)
          (ffn): FFN(
            (dropout): Dropout(p=0.1, inplace=False)
            (lin1): LinearWithLoRA(
              (linear): Linear(in_features=768, out_features=3072, bias=True)
              (lora): LoRALayer()
            )
            (lin2): LinearWithLoRA(
              (linear): Linear(in_features=3072, out_features=768, bias=True)
              (lora): LoRALayer()
            )
            (activation): GELUActivation()
          )
          (output_layer_norm): LayerNorm((768,), eps=1e-12, elementwise_affine=True)
        )
      )
    )
  )
  (pre_classifier): Linear(in_features=768, out_features=768, bias=True)
  (classifier): Linear(in_features=768, out_features=2, bias=True)
  (dropout): Dropout(p=0.2, inplace=False)
)
Sanity Checking: |          | 0/? [00:00<?, ?it/s]Sanity Checking:   0%|          | 0/2 [00:00<?, ?it/s]Sanity Checking DataLoader 0:   0%|          | 0/2 [00:00<?, ?it/s]Sanity Checking DataLoader 0:  50%|█████     | 1/2 [00:07<00:07,  0.13it/s]Sanity Checking DataLoader 0: 100%|██████████| 2/2 [00:07<00
…
